09 핀테크 머신러닝과 딥러닝 이해/source/day10/best_model.pt (torch, 320507 bytes, 4 tensors)

1.weight f4 [100, 784]
0	0xbe2b6e71	-0.16741349
1	0x3e4251d4	0.18976527
2	0xbe4738e5	-0.19455297
3	0xbe131e8c	-0.14367121
4	0xbe4052b1	-0.18781544
5	0x3d8d67c4	0.06904557
6	0x3ea4b30c	0.32167852
7	0x3dff21c7	0.124576144
8	0x3ce1a647	0.027545108
9	0xbea00924	-0.31256974
10	0xbf1bdb54	-0.60881543
11	0xbea2e2b9	-0.318136
12	0xbca03292	-0.019555364
13	0x3e2b56b3	0.16732292
14	0x3edc1b3a	0.42989522
15	0x3ebd03c1	0.36916927
16	0x3cffd65b	0.031230142
17	0xbef3eaae	-0.47639984
18	0xbec9dc47	-0.3942587
19	0xbdce5a5b	-0.10075828
20	0x3de343a9	0.110968895
21	0x3e7cbd35	0.24681552
22	0x3df97f59	0.12182493
23	0x3e28afee	0.16473362
24	0x3e89d6e7	0.2692177
25	0x3e0f5a48	0.13999283
26	0x3eaf4d2b	0.34238562
27	0xbd676982	-0.056497104
28	0xbe3d5ec7	-0.18493186
29	0xbddcfd14	-0.10790458
30	0xbead0ba0	-0.33797932
31	0xbea597bc	-0.32342327
32	0x3c923ed4	0.017852224
33	0x3d9694b9	0.07352585
34	0xbd48f514	-0.04906185
35	0xbdc5d42c	-0.09659609
36	0xbdc01ef6	-0.09380905
37	0xbebe20af	-0.3713431
38	0xbeeb4392	-0.4594999
39	0xbe41019a	-0.18848267
40	0x3c48728c	0.012234341
41	0xbd913561	-0.07090259
42	0xbdf920fd	-0.12164495
43	0x3e12ab2e	0.14323112
44	0x3de06983	0.10957625
45	0xbe9b3b04	-0.30318463
46	0xbeaac453	-0.33352908
47	0xbeaa4e23	-0.3326274
48	0xbd9f0923	-0.077654146
49	0x3e699e06	0.22814187
50	0x3e3e69c9	0.18595041
51	0x3ec95500	0.39322662
52	0x3eec59ac	0.46162164
53	0x3eba5cd0	0.36398935
54	0x3ebde17c	0.37086093
55	0xbe3b8b70	-0.1831491
56	0x3e9e0b4e	0.30868
57	0xbde7b91c	-0.11314604
58	0xbe41619c	-0.18884891
59	0xbe7dcf01	-0.24785997
60	0xbe8f9972	-0.28046757
61	0xbeb09736	-0.34490365
62	0xbe13ab7f	-0.1442089
63	0xbe44c2bf	-0.19214915
64	0xbe296a42	-0.1654444
65	0xbe2a68b3	-0.16641502
66	0xbe225dc5	-0.15856083
67	0xbd99c463	-0.07508161
68	0xbda6ae57	-0.081387214
69	0x3dc50727	0.09620505
70	0xbdcb73c5	-0.09934191
71	0x3d538068	0.05163613
72	0xbca85b8e	-0.02055147
73	0xbc5d3ee4	-0.013503764
74	0xbe1d22a9	-0.15345253
75	0xbdf8e963	-0.1215389
76	0xbe8f935b	-0.2804211
77	0xbe3b0818	-0.18264806
78	0xbe5516d2	-0.20809487
79	0x3df7fae8	0.121084034
80	0x3e449e5a	0.19201031
81	0x3eb96a8e	0.36214107
82	0x3e8ddc27	0.27707025
83	0x3ebf04da	0.3730839
84	0x3e4854f3	0.19563656
85	0x3ca57dd3	0.0202016
86	0xbdf0bd14	-0.11754814
87	0xbdcf2cca	-0.10115965
88	0xbeb8ba0f	-0.3607945
89	0xbe80f090	-0.25183535
90	0xbd4d50a4	-0.050125733
91	0x3dc1ea98	0.09468573
92	0x3d03b4c3	0.03215481
93	0xbc8f3dfc	-0.017485611
94	0xbe272b10	-0.16325021
95	0xbe4e56d8	-0.20150316
96	0xbc092243	-0.008369985
97	0xbcbeff73	-0.023315167
98	0xbe3714cd	-0.17879029
99	0x3c51075a	0.0127581
100	0xbe7a9a5e	-0.24472949
101	0xbe9c53d4	-0.30532706
102	0xbe1ceecf	-0.15325473
103	0x3d29c7fb	0.04145048
104	0xbcfebaeb	-0.031094989
105	0xbdb3377d	-0.08750818
106	0xbd660a89	-0.05616239
107	0x3d771cf5	0.06033035
108	0x3e82c377	0.25539753
109	0x3f0009c3	0.50014895
110	0x3eb3c24c	0.35109174
111	0x3eec82f2	0.46193653
112	0x3e32bbaf	0.17454408
113	0xbb37252b	-0.0027945738
114	0xbe02fb27	-0.1279112
115	0xbdc130d9	-0.09433145
116	0xbe9630c9	-0.29334095
117	0xbd1ea5f3	-0.03873248
118	0x3d91f296	0.07126348
119	0x3c1d1dac	0.009589594
120	0xbcad0a5c	-0.021123104
121	0xbbd41657	-0.0064723897
122	0xbe312483	-0.17299084
123	0xbe764e89	-0.24053396
124	0xbe0d6106	-0.13806543
125	0xbe7418e4	-0.2383762
126	0xbea86367	-0.32888338
127	0xbdf33b8e	-0.118765935
128	0xbe07c0c5	-0.1325713
129	0xbe555803	-0.20834355
130	0xbe3386e7	-0.1753193
131	0xbdbf1b5f	-0.093313925
132	0xbd964d62	-0.07338978
133	0x3d9cd2d1	0.076573975
134	0x3e00d8eb	0.12582748
135	0x3e24bc55	0.16087468
136	0x3e3792f9	0.1792716
137	0x3ef9e720	0.48809147
138	0x3eba989c	0.36444557
139	0x3e6494da	0.22322407
140	0x3e302826	0.17202815
141	0xbdacb75a	-0.08433409
142	0xbe2aa6ce	-0.16665193
143	0xbe4b877a	-0.19875899
144	0xbeaa5460	-0.33267498
145	0xbe1d775c	-0.15377563
146	0xbd06de7c	-0.03292702
147	0xbdb3659c	-0.08759615
148	0xbe0f8392	-0.14015034
149	0xbe48aa06	-0.19596109
150	0xbe0dea9c	-0.13859028
151	0xbe21dcc0	-0.15806866
152	0x3b92438e	0.0044636196
153	0xbe30fd0a	-0.17284027
154	0xbe65cb6f	-0.22440885
155	0xbd6f7a30	-0.058466136
156	0xbdc03bc8	-0.09386402
157	0xbe81f63f	-0.25383183
158	0xbe55b077	-0.20868097
159	0xbe32be17	-0.17455326
160	0xbe0d9fbe	-0.13830468
161	0xbd524ad8	-0.051340908
162	0x3dc45c09	0.09587867
163	0x3e5c32ce	0.21503755
164	0x3e4c77bd	0.19967552
165	0x3e88d107	0.26721975
166	0x3efc95b6	0.4933297
167	0x3e6566eb	0.22402541
168	0x3d982c17	0.074302845
169	0xbc10e8b6	-0.008844545
170	0xbe96dbb5	-0.29464498
171	0xbe599ffe	-0.21252438
172	0xbe21774e	-0.15768167
173	0xbe465a4c	-0.19370383
174	0xbe03dcfc	-0.12877268
175	0xbdd16c3d	-0.10225723
176	0xbd7b35f7	-0.06133076
177	0xbe344f0b	-0.17608277
178	0xbdd13683	-0.102154754
179	0xbe25d20f	-0.16193412
180	0xbd879a30	-0.06621206
181	0xbe3832a5	-0.1798807
182	0xbe82b636	-0.2552964
183	0xbdd3598b	-0.10319813
184	0xbdccaa8b	-0.09993466
185	0xbe7a5f48	-0.2445041
186	0xbe3e75de	-0.1859965
187	0xbe055447	-0.1302043
188	0xbd627a95	-0.055292685
189	0xbe0647b7	-0.13113295
190	0xbd11d1e6	-0.035600565
191	0x3e58e00d	0.21179219
192	0x3e3f08ac	0.18655652
193	0x3e310a63	0.17289118
194	0x3eee28bc	0.46515453
195	0x3f054d69	0.52071244
196	0x3ef5645a	0.47928125
197	0xbe18c483	-0.14918713
198	0xbe9361db	-0.28785595
199	0xbe50c6f5	-0.20388396
200	0xbe5e7964	-0.21725994
201	0xbd86926e	-0.06570898
202	0xbe134a38	-0.14383781
203	0xbd1e5638	-0.038656443
204	0xbc96fd73	-0.0184314
205	0xbc42282b	-0.011850397
206	0xbd8052c9	-0.0626579
207	0xbe1254db	-0.14290182
208	0xbe0970fa	-0.13422003
209	0xbe4f6f20	-0.20257235
210	0xbe8846c4	-0.2661649
211	0xbe3836c0	-0.17989635
212	0xbe387090	-0.18011689
213	0xbdf903f9	-0.12158961
214	0xbda99bf1	-0.082816966
215	0xbdc68469	-0.09693224
216	0xbcbd20a4	-0.023086853
217	0xbde03fbc	-0.10949656
218	0xbd26e0f7	-0.040741887
219	0x3e7776ac	0.24166363
220	0x3e5b04ad	0.21388502
221	0x3e88f0d8	0.2674625
222	0x3e7f908b	0.24957483
223	0x3f235b89	0.63811547
224	0x3ebfbe07	0.37449667
225	0xbe764f19	-0.24053611
226	0xbe9403cb	-0.28909144
227	0xbe4793e9	-0.19490017
228	0xbe11317c	-0.14179033
229	0xbd8b86ef	-0.06812846
230	0xbd2aaf92	-0.041671343
231	0xbdf7000b	-0.12060555
232	0xbc99a562	-0.018755618
233	0xbd41d2bb	-0.04732011
234	0xbe0699e8	-0.13144648
235	0xbd73b036	-0.05949422
236	0xbc272c86	-0.010203486
237	0xbe16d5d7	-0.14730011
238	0xbe3de001	-0.18542482
239	0xbe0975d8	-0.1342386
240	0xbd4ee90b	-0.050515216
241	0xbe188bd3	-0.14897089
242	0xbd892664	-0.066967756
243	0xbda49374	-0.08035937
244	0xbdd546e6	-0.104139134
245	0xbd97e763	-0.074171804
246	0xbcb3f92e	-0.021969404
247	0x3e545e13	0.20739011
248	0x3e5afe44	0.21386057
249	0x3e1aeda5	0.15129717
250	0x3e343838	0.17599571
251	0x3f0cf38e	0.55059135
252	0x3ef5ca9e	0.48006147
253	0xbd56319e	-0.052293412
254	0xbe3b13b9	-0.18269242
255	0xbdee73a0	-0.116431475

1.bias f4 [100]
0	0x3b875c74	0.0041308943
1	0xbee43fbe	-0.4457988
2	0xbd111ce4	-0.035427943
3	0x3c855765	0.016277025
4	0xbf17941a	-0.5921036
5	0x3ea69b25	0.3254024
6	0x3e82bef2	0.25536305
7	0x3d2d40f2	0.042298265
8	0x3e90c958	0.28278613
9	0xbd987714	-0.07444587
10	0xbf042aec	-0.51627994
11	0x3eb1a6c9	0.3469756
12	0x3e56bdb4	0.20970803
13	0x3e891516	0.267739
14	0x3e855111	0.2603841
15	0xbed2971f	-0.4113092
16	0x3bee745a	0.007277054
17	0x3f30e326	0.690966
18	0xbccd9a81	-0.025098087
19	0x3ebc63c9	0.3679488
20	0xbdaf638d	-0.0856391
21	0xbcfbd404	-0.030740745
22	0x3d324e46	0.04353168
23	0xbd0358e3	-0.03206719
24	0x3ef73c7b	0.4828833
25	0x3c2256ff	0.009908437
26	0x3e61a657	0.2203611
27	0xbd923098	-0.07138175
28	0xbd914903	-0.07094004
29	0x3ee87db4	0.45408404
30	0xbc631a15	-0.013861199
31	0x3e8879c7	0.2665541
32	0x3edf04df	0.43558404
33	0x3e16ff8b	0.1474592
34	0xbf0fa10d	-0.5610512
35	0xbec782a4	-0.38966858
36	0xbc3a9914	-0.011389036
37	0xbc7594bb	-0.014989073
38	0x3e3ba3fd	0.18324275
39	0x3f054273	0.5205452
40	0x3cb491fa	0.022042263
41	0x3eb9d3d9	0.3629444
42	0x3e8de4f6	0.27713746
43	0xbe57c456	-0.2107099
44	0x3df3cfe4	0.11904886
45	0x3b3a3048	0.0028410126
46	0xbcac96ae	-0.021067943
47	0x3f514162	0.8174039
48	0x3d044a35	0.03229733
49	0xbe6a2c7e	-0.22868535
50	0xbeff4dc1	-0.4986401
51	0x3daa51b7	0.08316367
52	0xbe9f4ebb	-0.31114754
53	0x3eb9bfc1	0.3627911
54	0x3e2ef56f	0.17085813
55	0xbceac6d2	-0.028659258
56	0x3bb27223	0.005445735
57	0xbd4dfae2	-0.05028809
58	0x3efa136c	0.48842943
59	0x3f032f67	0.51244205
60	0x3ec8f9cf	0.3925309
61	0x3edf4999	0.43610838
62	0x3f274dfa	0.6535336
63	0x3f0c190e	0.5472573
64	0xbd16288d	-0.036659766
65	0xbc965dea	-0.018355329
66	0x3e41ed6e	0.18938228
67	0x3eb9483d	0.36187926
68	0x3f404296	0.751016
69	0x3c8900a4	0.016723938
70	0x3ef5d578	0.48014426
71	0x3ca7dfa0	0.020492375
72	0xbdab678b	-0.08369359
73	0x3bb816a1	0.005617932
74	0xbcd7dd55	-0.026350657
75	0x3bebed14	0.007199893
76	0x3e6e311e	0.23260924
77	0x3f188823	0.5958273
78	0xbef1d680	-0.47233963
79	0x3f5376e0	0.82603264
80	0xbd8f90ed	-0.07010064
81	0xbe98f53b	-0.29874596
82	0x3f614d52	0.88008606
83	0x3ea4196e	0.3205065
84	0xbe897363	-0.26845846
85	0x3efd2dd7	0.49449036
86	0x3e1e29c7	0.15445624
87	0xbd1cb176	-0.038255177
88	0x3eb7f626	0.35929984
89	0x3eb9e6ee	0.36308998
90	0x3e9ec0a2	0.31006342
91	0xbde61a30	-0.112354636
92	0x3f26d934	0.65175176
93	0x3ee657c5	0.44988838
94	0x3e9c35a8	0.30509686
95	0x3f1e1c58	0.61762
96	0xbd1369fe	-0.035989754
97	0x3efeadc7	0.49741957
98	0x3f274c91	0.65351206
99	0xbb42a4d0	-0.0029700287

4.weight f4 [10, 100]
0	0x3dba4a67	0.09096222
1	0x3e096dea	0.13420835
2	0xbd9c9b8c	-0.07646856
3	0xbd4da932	-0.050210185
4	0x3d5c5ded	0.053800512
5	0xbe711328	-0.23542464
6	0xbe781ff7	-0.24230944
7	0xbda8e0c1	-0.082459934
8	0xbec8d859	-0.3922756
9	0x3e58a51f	0.21156739
10	0xbe47f3c8	-0.19526589
11	0xbe21ff45	-0.15820034
12	0xbeb41c87	-0.35178015
13	0x3d324218	0.043520063
14	0x3e3e7a85	0.18601425
15	0xbbcec203	-0.006309749
16	0xbdb13936	-0.0865349
17	0x3e4c6e23	0.19963889
18	0xbda9cbf4	-0.08290854
19	0x3d029410	0.031879485
20	0x3e47d65b	0.19515364
21	0xbcdde869	-0.02708836
22	0x3e0145ba	0.12624255
23	0xbef5b30b	-0.4798816
24	0xbe13da89	-0.14438833
25	0x3c65bb65	0.014021729
26	0xbedc721b	-0.43055806
27	0xbe0dc13c	-0.13843244
28	0xbe779afe	-0.24180219
29	0x3e0cf72a	0.1376616
30	0xbd3d3350	-0.046191514
31	0xbda6fea8	-0.081540406
32	0x3df5ae8f	0.11996185
33	0xbf0fbd60	-0.5614834
34	0xbe183aa4	-0.1486612
35	0x3d800235	0.06250421
36	0xbd16e22a	-0.03683678
37	0x3c91113a	0.01770841
38	0x3b85a034	0.0040779356
39	0x3dcb96da	0.09940882
40	0xbea10da7	-0.31455728
41	0x3dfcdf80	0.12347317
42	0xbdf1d021	-0.118072756
43	0x3cc95681	0.024577381
44	0x3da2d074	0.079499155
45	0xbda8f937	-0.08250659
46	0xbd318f1f	-0.04334938
47	0x3e1a2c98	0.15056074
48	0xbe1c34f9	-0.15254582
49	0x3d43abb6	0.04777118
50	0xbe54ff20	-0.20800447
51	0xbea3decb	-0.32005915
52	0x3e358178	0.1772517
53	0xbeea940d	-0.4581608
54	0xbe878e28	-0.26475644
55	0xbc8482cd	-0.016175652
56	0x3db783e6	0.089607045
57	0xbd59f936	-0.05321618
58	0x3e9b0fbd	0.30285445
59	0xbe8e0583	-0.2773858
60	0xbdcef337	-0.10104983
61	0x3dea96d5	0.1145455
62	0x3d40c9d9	0.047067497
63	0xbd1f92f2	-0.038958497
64	0xbc3a79a7	-0.011381543
65	0x3da04c85	0.07827095
66	0x3e1a8f3f	0.15093707
67	0xbcc049cc	-0.02347269
68	0xbcefd9ee	-0.029278722
69	0x3bca5396	0.006174515
70	0xbd1270cb	-0.0357521
71	0xbdd3d7a9	-0.10343868
72	0x3d4c3430	0.049854457
73	0xbd8d599b	-0.069018565
74	0x3da18739	0.0788712
75	0xbc385a04	-0.01125193
76	0x3dfffd7f	0.124995224
77	0x3e1c696b	0.15274589
78	0xbeaa83f7	-0.33303806
79	0xbf1314a7	-0.5745339
80	0x3daeb97d	0.08531473
81	0xbe107730	-0.14107966
82	0xbee7d90f	-0.4528279
83	0xbedf4a47	-0.43611357
84	0x3e141985	0.1446286
85	0x3deab975	0.11461154
86	0xbe00c987	-0.12576877
87	0x3d94feb7	0.072751455
88	0x3d87ed5c	0.066370696
89	0xbd1aceac	-0.037794754
90	0xbf08e845	-0.53479415
91	0xbe066ab9	-0.13126649
92	0x3e11e5ea	0.14247862
93	0x3c25fb77	0.010130755
94	0xbdf8d26a	-0.12149508
95	0x3dc9166b	0.09818729
96	0x3d32be62	0.043638594
97	0x3e25e9bb	0.16202442
98	0xbd8890da	-0.06668253
99	0xbd613ca6	-0.05498948
100	0xbeaaafef	-0.33337352
101	0xbea6ef17	-0.32604286
102	0xbd99ceb5	-0.07510129
103	0x3dadb1f0	0.084812045
104	0xbd0c0635	-0.034185607
105	0x3e810951	0.2520242
106	0xbf4b37ea	-0.79382193
107	0xbf3a0fbf	-0.72680277
108	0xbeb9b7c1	-0.36273006
109	0xbf20bfb5	-0.6279252
110	0x3e20687b	0.15664856
111	0xbe5d278d	-0.21597119
112	0xbef156e4	-0.47136605
113	0xbf55daa3	-0.8353674
114	0xbf3b1109	-0.7307287
115	0x3d5ed22c	0.054399654
116	0x3c20debe	0.009818731
117	0xbf153a30	-0.5829191
118	0xbdcf209a	-0.1011364
119	0x3ebafac7	0.36519453
120	0xbec02205	-0.37525955
121	0xbcd69f7d	-0.026199097
122	0x3e3c50fb	0.18390267
123	0xbf0d3095	-0.55152255
124	0xbec17e59	-0.37791708
125	0x3e83a1c2	0.2570935
126	0xbe088b9b	-0.13334505
127	0xbe347bb8	-0.1762532
128	0xbf041d9e	-0.5160769
129	0x3e52302e	0.20526192
130	0xbd5f87d6	-0.054572903
131	0x3e354c01	0.17704774
132	0x3d11661b	0.035497766
133	0x3dd4440a	0.1036454
134	0x3e267cfb	0.16258614
135	0xbe8b46df	-0.27202508
136	0x3d61bf3a	0.05511401
137	0xbb96ea91	-0.004605599
138	0x3e0f6b49	0.1400577
139	0xbf063a45	-0.5243266
140	0x3e02cb9d	0.12772985
141	0xbf2c5c9d	-0.67328817
142	0xbeb0e769	-0.34551552
143	0x3d835b68	0.06413919
144	0x3d822f79	0.06356711
145	0x3c5e923b	0.013584669
146	0x3d2ea070	0.042633474
147	0xbefc5109	-0.49280575
148	0x3e2ff7b1	0.1718433
149	0xbf0359e8	-0.5130906
150	0xbc9e7d28	-0.019346789
151	0x3f06b5e1	0.52621275
152	0xbe438d45	-0.19096859
153	0x3e42575e	0.1897864
154	0xbf25fd3b	-0.64839524
155	0xbd62b6de	-0.055350177
156	0xbdc1fc27	-0.09471922
157	0x3d8c181c	0.06840536
158	0x3e7d3249	0.24726214
159	0xbea9ff0d	-0.332024
160	0xbe76d5d6	-0.2410501
161	0xbe22a8a2	-0.15884641
162	0xbf63ed84	-0.89034295
163	0xbf3ba212	-0.73294175
164	0x3d926041	0.07147265
165	0x3bb8610a	0.0056268023
166	0x3d31c39f	0.04339945
167	0xbdd1962f	-0.10233723
168	0xbeef476b	-0.46734175
169	0xbe4be904	-0.19913107
170	0xbf3885a7	-0.7207894
171	0x3d76895b	0.060189586
172	0x3da292c5	0.0793815
173	0xbd492439	-0.04910681
174	0x3d4d367c	0.05010079
175	0x3c49d8b2	0.012319731
176	0xbe8458d9	-0.25849035
177	0xbe8bc277	-0.27296802
178	0x3ede0c17	0.433686
179	0xbf1312dc	-0.5745065
180	0xbeca91df	-0.39564416
181	0xbdc44f40	-0.09585428
182	0xbef8b182	-0.48572928
183	0xbdcc43f2	-0.09973897
184	0x3d8bde08	0.068294585
185	0xbf1e808c	-0.61914897
186	0xbdac8a25	-0.084247865
187	0xbe764c62	-0.24052575
188	0xbf0a2e5c	-0.5397699
189	0xbe8ff575	-0.28116956
190	0x3da3a33b	0.07990118
191	0x3e3fc613	0.18727903
192	0xbd47a726	-0.04874339
193	0x3dc8b601	0.098003395
194	0xbe5624d7	-0.20912491
195	0x3df3a52a	0.11896737
196	0xbdc64482	-0.096810356
197	0x3e29f265	0.16596372
198	0xbef5cc5c	-0.48007476
199	0xbb088b83	-0.0020835109
200	0xbeaebd9c	-0.34129035
201	0x3bfbb3bf	0.0076813395
202	0x3cdf4803	0.027256018
203	0x3d857337	0.06516116
204	0x3d554648	0.05206898
205	0xbe7a40e3	-0.24438815
206	0xbeae7d30	-0.34079885
207	0x3e11da5f	0.14243458
208	0xbefe3ae7	-0.49654314
209	0xbeb6c334	-0.35695803
210	0xbc184681	-0.009294153
211	0x3dfe51ad	0.12417922
212	0xbdf812b9	-0.12112946
213	0xbe7f9098	-0.24957502
214	0xbdd18c6e	-0.10231863
215	0x3dde8aa2	0.10866286
216	0x3d8f7961	0.07005573
217	0xbe223ad7	-0.15842758
218	0x3d47aba2	0.048747666
219	0x3e0becf6	0.13664612
220	0xbe1c3e2d	-0.15258093
221	0x3d9e220e	0.07721339
222	0x3dda5288	0.10660273
223	0xbda84089	-0.08215434
224	0xbe48c8d0	-0.19607854
225	0xbc899917	-0.016796632
226	0xbdf18623	-0.11793163
227	0x3dd2b9e2	0.102893606
228	0x3e06c8e8	0.13162577
229	0x3e6dbdcd	0.23216935
230	0xbc9eabe2	-0.01936907
231	0xbe8d936e	-0.27651542
232	0xbe6e6949	-0.2328235
233	0xbf8e3c53	-1.111216
234	0x3d03de32	0.032194324
235	0xbe1839f4	-0.14865857
236	0x3d94d13a	0.07266469
237	0xbd013047	-0.03154018
238	0xbe14a936	-0.14517674
239	0xbe421d4f	-0.18956493
240	0xbe9dcf19	-0.30822065
241	0xbe8b5fb7	-0.27221462
242	0xbf076b14	-0.52897763
243	0x3d161fb6	0.036651336
244	0x3d8ea9dc	0.06965992
245	0x3d47e054	0.04879792
246	0x3cadea8c	0.021230005
247	0x3e101b15	0.14072831
248	0x3d8f0a1a	0.069843486
249	0x3dae914b	0.08523806
250	0xbe71f58b	-0.23628823
251	0xbeca5270	-0.3951602
252	0xbd799dfe	-0.06094169
253	0xbe1b4dd5	-0.1516641
254	0x3d8fca1d	0.07020972
255	0xbdbf3125	-0.093355455

4.bias f4 [10]
0	0xbbe80c4c	-0.007081544
1	0xbee6658a	-0.44999343
2	0x3da2ae89	0.07943446
3	0x3eaecd46	0.34140986
4	0xbe8e8ce6	-0.27841872
5	0x3e655a5c	0.2239775
6	0x3e105c72	0.14097765
7	0x3e8ae984	0.27131283
8	0xbe50fde4	-0.20409352
9	0xbf2d22a8	-0.67631006
